CareSight_AI/Prototype_AI/cardio_model.pt (torch, 3962 bytes, 5 tensors)

model.0.weight f4 [16, 10]
00000000: b358 083f c78c df3c 72cf 733e 411b b53e
00000010: 0a5e 13be f9cc f43d 5a83 153d 841a e9bd
00000020: 3130 d0be fb09 873d d2e6 40be 0db0 1bbe
00000030: 3005 1d3c 24e5 11be e4ed 0fbf c1b7 8dbe
00000040: 9baa e0bd b1ae 923e 0a86 c9be 670c 1fbe
00000050: 8d6b 16bf 1f19 7abe b86d 9abe 044a 2abe
00000060: 5965 c5bb 0b2a f73d ee02 813e 1bed a43e
00000070: d435 b13d 25d1 843e f93d 14bd 53d3 bdbe
00000080: 57bf 6c3e 296b 9bbe 3bad 6ebe f775 a0be
00000090: 7805 84be b428 c83e a471 3e3e 50a8 933d
000000a0: 30d3 3ebe 1a37 cabe 1a44 a83e e547 fcbd
000000b0: 01b8 563e e39e 243d c8e2 bb3e 252d d5be
000000c0: ca7a a03e 1a0b e23d 36d7 f9be 7265 7fbe
000000d0: 8fad bdbe 1c82 213e 37f1 7dbc f0d6 873e
000000e0: b6f6 3abe 9e4d b6be 5113 a4bd 9ee1 93bd
000000f0: c7bd 5bbd 9045 72be 407d 793d c947 97be
00000100: c20a 4fbe 84d9 dfbd be4e 833e 09aa a53d
00000110: f63f 8139 e444 5abe 2b2d 27bf a39e 113c
00000120: 62b1 343e a25a 473e 92ba d1be 16d2 06be
00000130: bdf2 9fbd 3ab1 9ebe 93b9 153e c89e 033e
00000140: 864a 603d 6b75 813e f5d2 b03e 2db3 3b3e
00000150: 1c62 8fbe 6334 183d fd45 8bbe 1169 a13e
00000160: 8956 783e 9fdf 93be f0b2 debe 2e18 07bf
00000170: 2bd7 ba3d 4294 fabd c5e5 d13e 83a9 51be
00000180: 3d95 793e 5152 923e c095 723d 1a8d c5be
00000190: 8a11 adbd 2f4c 2b3e 2eb1 e4bd 5408 77be
000001a0: b428 10bd 2344 413e 0e47 2fbe 1650 8dbc
000001b0: 0b0c e1bd d729 4cbe c92e 853e 6ced 42be
000001c0: 0b49 8e3c 13f5 83be ed84 573e 9c13 3bbe
000001d0: e31e acbe d484 353e 6733 e03d cc37 a93e
000001e0: 5cbb 033f e3b5 6abe 7fcb bc3c 50c6 a03e
000001f0: 523e fdbb 5063 76be dea3 d13d ad45 f9bd
00000200: 59b9 b8bc fde7 083e 118f a43e 2001 97be
00000210: 0183 8d3d 52b3 e7bb 16e3 86be 87c3 80bd
00000220: 7e4a 223e 7a16 ba3d 8ee3 963e 85cf b53d
00000230: 5743 d43d c3a2 e83e a70d 583e eeb5 8a3d
00000240: 75c2 6fbd 3335 9b3e 106b 84be 6cb5 393e
00000250: 4f30 f43b ce5c 04be 0745 d53e b6df 69bb
00000260: abea 633e 7d20 273e 43e3 02bd 0488 d0be
00000270: 8f7c b93e a3f6 7abe 94b2 4dbe 32c0 de3e
0.53260344 0.027288808 0.23809603 0.35372356 -0.14391342 0.11953158 0.03650222 -0.113820106
-0.40661767 0.065937005 -0.18838051 -0.15203877 0.009583756 -0.14247566 -0.5622237 -0.27679256
-0.109700404 0.28648904 -0.39360076 -0.15532075 -0.5875786 -0.24423645 -0.30161834 -0.16629797
-0.0060240445 0.12068566 0.25197548 0.32212147 0.08652845 0.25940815 -0.036191914 -0.3707529
0.23119865 -0.30355194 -0.2330827 -0.3134 -0.25785422 0.39093554 0.18598038 0.072098374
-0.18635249 -0.39495164 0.32864457 -0.123184 0.2096863 0.04019059 0.36696458 -0.41636005
0.3134368 0.11037274 -0.48797005 -0.24941042 -0.37046477 0.15772289 -0.015499405 0.26531172
-0.18258175 -0.35606092 -0.08011497 -0.072207674 -0.053647783 -0.23659348 0.060910463 -0.29546955
-0.20218948 -0.1093016 0.25646013 0.08089072 0.00024652452 -0.21315342 -0.65303296 0.00888792
0.17645791 0.19468167 -0.40962654 -0.13166079 -0.078099705 -0.30994588 0.14621572 0.12853539
0.05475857 0.25284895 0.34535947 0.18330069 -0.2800454 0.037159335 -0.27201834 0.31525472
0.2425176 -0.28881547 -0.43495893 -0.5277127 0.09123071 -0.12235309 0.40995613 -0.2047482
0.24373336 0.28578427 0.059224844 -0.38584214 -0.08450611 0.1672828 -0.11166607 -0.2412427
-0.035195068 0.18873648 -0.17116949 -0.017250102 -0.10988625 -0.19937836 0.26012257 -0.19035882
0.017368814 -0.25772914 0.21046801 -0.18269199 -0.33617315 0.17726451 0.10947304 0.33050382
0.5145776 -0.22920947 0.023046253 0.314013 -0.0077283764 -0.24061322 0.10236333 -0.12171493
-0.022549318 0.13369747 0.321404 -0.29493046 0.06909753 -0.007070937 -0.26345128 -0.06287294
0.15848729 0.09086318 0.29470485 0.08877472 0.103644066 0.45436677 0.21098958 0.067729816
-0.058535058 0.30314025 -0.25862932 0.18135613 0.007452048 -0.12926027 0.41654226 -0.003568632
0.22257487 0.16320987 -0.031955015 -0.40728772 0.36227843 -0.24508147 -0.20087653 0.43506008

model.0.bias f4 [16]
00000000: 2ea5 21be 7db1 e3bd e8ee a0bd 0f7e c9bd
00000010: 198e 68bd 7cd1 ad3d 0611 e2bd 5e35 91bd
00000020: 814e 89be 1e1d 79bb c524 a43c efd6 57be
00000030: e7a0 8e3e 6401 913e 8b28 2a3e 6d8e 33bd
-0.15785667 -0.111178376 -0.07858068 -0.09838497 -0.05677614 0.084872216 -0.11038403 -0.07090257
-0.26817706 -0.003801174 0.020037064 -0.21078084 0.27857134 0.28321373 0.16617028 -0.043837

model.2.weight f4 [8, 16]
00000000: 4e3c 0ebf 199f a23e b50b 873e 059b 9c3e
00000010: ea94 8f3e 5194 3c3e 2e6c 6f3e 1e50 eb3e
00000020: b739 d8be dc79 5c3e 88fe e03c 167d 0bbd
00000030: ecb1 a1be 1d30 e8bd fd6f 11be 271b 82be
00000040: 6a75 a7bd 1c41 c1bb 635a c93d e87f 02be
00000050: 8c6c a7bd c3c8 e43c 87af 93bd 5545 083e
00000060: 2e69 723b e731 33be 5fb8 37bd 0601 2ebe
00000070: 4392 5bbd 8f21 f53d 6118 3dbe a4bb 9dbd
00000080: a5f2 b1be b632 cb3d 4ab9 463e 56cf 7c3e
00000090: d09c 3e3e 246f b43e fa59 f33d f6c3 0e3f
000000a0: 8680 1cbe f517 8d3d 38f2 25be 29cb c73d
000000b0: 2c3f 3cbe fcd6 bebe ad59 0e3e d9ca 98bd
000000c0: 24f0 02bf 484f d33d 0a79 203e 304a 943e
000000d0: e5ed 5d3e 9aff 833e 6b58 933c 84d8 603e
000000e0: 55b1 6bbe 36ca e33e d95f 4cbd 299c 37bd
000000f0: d00a eebe 2b4c 2fbc 51e2 e0bd 4533 82be
00000100: 2b1b ebbe 1e2d a03e c3b4 323e f6ff 3b3e
00000110: 0fa0 a43e d7c1 623e 6722 0e3e 0e62 1d3f
00000120: cc58 e4be 83a5 c33e 1ee3 853e 3728 0f3e
00000130: 3474 09be ddd4 76be c012 08be b291 31be
00000140: dd05 2bbe bae7 af3e 561c 893e 3fd9 893d
00000150: b990 7a3e 0fa7 a73e f212 443e 5e66 6c3e
00000160: 389a f1bd 5793 143e d0b8 31be 66a7 4d3e
00000170: 9005 cbbe 424d 2f3d 2e9e 12bd 81aa c6be
00000180: e48f 63be f3e5 9d3e 71a6 9f3e 610b e73d
00000190: f4e3 7c3d 6e51 7a3d a0ce aa3c 32e8 de3e
000001a0: 3a8a dbbe 2b98 6f3e bdc7 37be bcfe f83d
000001b0: ded6 a3be 678b b3bc fcf0 cbbd f62a 69be
000001c0: cc27 c2bd 80cf 4abd 0048 3bbb 44a8 e9bd
000001d0: d874 e8bd 29b1 7dbd f490 bfbd a8dc 343d
000001e0: 7016 d7bc 18f9 ebbd 8c2f 2c3e d9dd 06be
000001f0: 42bd 483c 20dc 34be 381a 41bd 177f f83d
-0.5556077 0.31762007 0.2637612 0.3058702 0.280433 0.18415953 0.23381111 0.45959562
-0.42231533 0.2153086 0.02746512 -0.034054838 -0.31581056 -0.11337302 -0.14202876 -0.2541134
-0.08176692 -0.005897654 0.09831693 -0.12744105 -0.081750005 0.027927762 -0.072112136 0.13307698
0.0036988962 -0.17499505 -0.044853564 -0.16992578 -0.053606283 0.119692914 -0.18466331 -0.07701805
-0.34755436 0.09921782 0.1940662 0.24688467 0.18614507 0.35241044 0.11882396 0.5576776
-0.15283403 0.06889335 -0.1620568 0.097555466 -0.18383473 -0.37273395 0.13901396 -0.07460565
-0.51147676 0.10317856 0.15671173 0.2896285 0.21672781 0.25780946 0.017986497 0.21957594
-0.23016866 0.44490212 -0.049896095 -0.04482666 -0.46492624 -0.010699312 -0.109806664 -0.2542974
-0.45919165 0.31284422 0.17451768 0.1835936 0.32153365 0.22144257 0.13880311 0.61477745
-0.44598997 0.38212213 0.2614984 0.13980184 -0.13423234 -0.24104638 -0.13288403 -0.17340735
-0.16701455 0.3435648 0.2677943 0.067308895 0.2446927 0.32744643 0.19147852 0.23085925
-0.11796993 0.1450933 -0.17355657 0.20083389 -0.3965268 0.04279829 -0.035795383 -0.3880196
-0.22222859 0.308395 0.31181672 0.11281467 0.06174083 0.061112814 0.02085048 0.43536526
-0.42878896 0.23397891 -0.17947288 0.12157962 -0.31999868 -0.021917058 -0.099580735 -0.22770295
-0.09480247 -0.049514294 -0.002857685 -0.11409047 -0.11350411 -0.06193653 -0.093538195 0.044155747
-0.026255816 -0.1152212 0.16815013 -0.13170566 0.012252154 -0.17662096 -0.047144145 0.121336155

model.2.bias f4 [8]
00000000: 8664 153e 975f 68be f4d5 dbbc 47e3 483e
00000010: 228e 98bd f7bf 833d b52a 0d3e be31 68be
0.14589128 -0.22692715 -0.02683542 0.1961795 -0.07448985 0.06433099 0.13785823 -0.22675225

model.4.weight f4 [1, 8]
00000000: 842c 1bbf eceb 453d 6b5b 1abf 7a12 cebe
00000010: a2a8 c3be 7868 0abf dbdf 4bbe fd17 2d3e
-0.606148 0.048320696 -0.6029574 -0.40248471 -0.38214594 -0.54065657 -0.19909613 0.16903682
